_________________________________________________________________
Layer (type)                 Output Shape              Param #   
=================================================================
conv2d_1 (Conv2D)            (None, 19, 19, 16)        4112      
_________________________________________________________________
conv2d_2 (Conv2D)            (None, 8, 8, 32)          12832     
_________________________________________________________________
flatten_1 (Flatten)          (None, 2048)              0         
_________________________________________________________________
dense_1 (Dense)              (None, 512)               1049088   
_________________________________________________________________
dense_2 (Dense)              (None, 6)                 3078      
=================================================================
Total params: 1,069,110
Trainable params: 1,069,110
Non-trainable params: 0
_________________________________________________________________
_________________________________________________________________
Layer (type)                 Output Shape              Param #   
=================================================================
conv2d_3 (Conv2D)            (None, 19, 19, 16)        4112      
_________________________________________________________________
conv2d_4 (Conv2D)            (None, 8, 8, 32)          12832     
_________________________________________________________________
flatten_2 (Flatten)          (None, 2048)              0         
_________________________________________________________________
dense_3 (Dense)              (None, 512)               1049088   
_________________________________________________________________
dense_4 (Dense)              (None, 6)                 3078      
=================================================================
Total params: 1,069,110
Trainable params: 1,069,110
Non-trainable params: 0
_________________________________________________________________
episode: 0  score: -20.0  memory length: 4585 epsilon: 1 Q:-1 loss: -1
episode: 1  score: -21.0  memory length: 8105 epsilon: 1 Q:-1 loss: -1
episode: 2  score: -21.0  memory length: 11893 epsilon: 1 Q:-1 loss: -1
…
