_________________________________________________________________
Layer (type)                 Output Shape              Param #   
=================================================================
conv2d_1 (Conv2D)            (None, 19, 19, 16)        4112      
_________________________________________________________________
conv2d_2 (Conv2D)            (None, 8, 8, 32)          12832     
_________________________________________________________________
flatten_1 (Flatten)          (None, 2048)              0         
_________________________________________________________________
dense_1 (Dense)              (None, 256)               524544    
_________________________________________________________________
dense_2 (Dense)              (None, 6)                 1542      
=================================================================
Total params: 543,030
Trainable params: 543,030
Non-trainable params: 0
_________________________________________________________________
_________________________________________________________________
Layer (type)                 Output Shape              Param #   
=================================================================
conv2d_3 (Conv2D)            (None, 19, 19, 16)        4112      
_________________________________________________________________
conv2d_4 (Conv2D)            (None, 8, 8, 32)          12832     
_________________________________________________________________
flatten_2 (Flatten)          (None, 2048)              0         
_________________________________________________________________
dense_3 (Dense)              (None, 256)               524544    
_________________________________________________________________
dense_4 (Dense)              (None, 6)                 1542      
=================================================================
Total params: 543,030
Trainable params: 543,030
Non-trainable params: 0
_________________________________________________________________
frame:3869 episode:0 score:-21.0  mem:3869 epsi:1 loss:-1 Q:-1
frame:9220 episode:1 score:-18.0  mem:9220 epsi:1 loss:-1 Q:-1
frame:12465 episode:2 score:-21.0  mem:12465 epsi:1 loss:-1 Q:-1
…
